lstm_baseline.pth (torch, 53503 bytes, 7 tensors)

l_lstm.weight_ih_l0 f4 [80, 8]
00000000: a0d9 bfbe a21f 77be d725 a03e a038 5e3f
00000010: e9e7 29bf b160 f13d e691 8a3f 5f33 8c3f
00000020: 0c97 be3c fb3d b33e 2f43 9ebd 2d0c e7be
00000030: be90 8cbd 6979 f23f 20df 86c0 d0ad 82c0
00000040: e147 9c3e 43f3 0b3f b5c8 923d e8ae 9dbe
00000050: 7a5a e13e 8c06 24bf 7f1a 873f 1add e63e
00000060: b6db de3d cb30 ce3e f879 7e3e f31f 643e
00000070: 9369 903e 3b34 3d3e 8c0c d63e 44ac f53e
00000080: f37b d1be d34f 30be f4c6 d2be 1930 1bbf
00000090: 0a76 3cbf f0e9 2e3e 67be b5be ccb7 2e3f
000000a0: 5ef7 093e cee4 983d 7ae0 063f 5bec ed3d
000000b0: 752d 243e 877b d7bd 3cd5 6c3f 6ab8 5f3f
000000c0: e9fa ddbe 91ae 4dbf 176e a5be faff 48bf
000000d0: a0d9 933e afa9 38bf 4f29 913f e4e7 903e
000000e0: 92ad a13e c231 db3d 12a1 6d3e 2696 1bbf
000000f0: a91d 1a3f cefa 113e e39f ad3c 08d8 5bbf
00000100: 3869 403f 0eba fd3e 29a1 0e3e e99f 61bd
00000110: fe73 f2be b475 943e 752f 1f3e ef54 113f
00000120: 8678 5a3e 9f08 c03e 3762 403f dd04 0c3e
00000130: d948 303e ce48 7d3f 0b2f f03e 4fea 913e
00000140: ce1f 573f 3998 573f 0f5b 2d3f f591 8ebe
00000150: 2a57 2fbe b123 1c3f 3225 3e3e edba 473e
00000160: 7826 05bf 86f7 50bf 36d8 90bf 478e 2c3f
00000170: 1b57 8abf b0cc b63e 49d1 87b9 0629 15bf
00000180: c12c 033f eb22 81be dab8 94be a64f 6cbe
00000190: 89c9 a1bd 6cc3 fb3d 7671 26be 6532 cabe
000001a0: 6816 be3e 7207 edbe 5d29 1e3e b68f be3f
000001b0: d540 d03e 6bd6 0a3f bc1d 703d 1553 283e
000001c0: ae98 cfbe b9ed e03e 26c8 b53f 509e b2bf
000001d0: 054a 21bf 96d6 c73f ef48 323e 9553 5d3e
000001e0: b53c b53f d2eb ad3f 189a 91be fba4 013f
000001f0: 9851 5d3e 8839 793e 0bab 513e 0464 c2bc
00000200: cdc2 d53f 7fbe b03e 2e5c 5f3e 6a08 153e
00000210: 8c98 303f 8a94 b53e 6de0 2f3f c9eb a43f
00000220: 65d9 03bf 15e3 31c0 e40d e53e dcd1 dcbe
00000230: edbd a8be 53b8 f8be 45a2 a7bd c6ed df3e
00000240: 644c b73e 4a39 b9bc cb5a 703e d546 3b3e
00000250: 4402 223e 82e1 303e fecb aa3e 31e7 693d
00000260: cffb ae3d e237 b43e 896c d63e a655 ca3e
00000270: 8675 a73e 10b0 213f 0af0 a73f 3876 6e3f
00000280: c4b3 5dbf 1b07 82be 45cf 38bf 0405 193f
00000290: 5d73 613e fa04 d7bf 1bf5 0b3e f9d3 093f
000002a0: 13ff 593f c6a0 863f 904f 853f 988f 0abf
000002b0: 1ee5 81bd 8444 86bf a637 823e 0654 3abe
000002c0: f3ee 083d 07d9 a33f 2dac 2abf 6473 1f40
000002d0: 5f29 b6be 4018 c3bf 0cff e33e 84f2 483d
000002e0: 56d0 ffbe 2192 00be 133d 183e a297 333f
000002f0: 5a35 fc3e 588d 253f 27d1 463f c3d3 edbd
00000300: 5d6a 5d3d 5747 c9be 464a 74bf 92af 89bf
00000310: 093f 08bf 518c 5dbe 506e 39bf 4135 e1be
00000320: c171 ea3e 79d0 b03d db24 873e 8eec 5a3e
00000330: d080 79bf 59e0 e93d a065 b83e 24d9 3f3f
00000340: 418b d2bf baa9 6f3e 0fd4 80be d4c3 d83e
00000350: 8af1 61bf 59c1 61bf 9dfa c9bd b0a1 dc3e
00000360: 98e7 68bd a370 963f edfc ae3e 2618 2fbd
00000370: 15e2 25bf d2ad 833f 2905 b0bf 2983 94bf
00000380: 4725 5dbf d610 6dbf d303 6cbf 6af4 94be
00000390: bb55 68bd c883 9dbe e5ef 023f 9e06 6d3f
000003a0: a37f d5be e2c8 c1be 8617 9cbe 55ff a3be
000003b0: 3435 ebbe 3ef2 99bd d0f8 cfbd 1fc4 14bd
000003c0: dab0 c63e 3f49 d8be 7655 a3be 76b4 b43e
000003d0: e9ac 38bf 41b4 1ebe 6eb7 93bf 0479 34bf
000003e0: 61b2 8bbf e46d 1cbe 5ce9 b9be cd84 f73e
000003f0: b1d8 023f 50d4 2fbf 3704 d8be 3c69 76be
-0.37470722 -0.2413316 0.3127887 0.8680515 -0.6636949 0.117860205 1.0825775 1.0953177
0.023265384 0.35008225 -0.07727658 -0.45126477 -0.06863545 1.8943301 -4.214737 -4.0837173
0.3052359 0.5466806 0.07167188 -0.30797505 0.4401434 -0.6407249 1.0554961 0.45090562
0.1088175 0.402716 0.24851215 0.22277813 0.28205547 0.18476956 0.41806448 0.4798299
-0.40914878 -0.1721795 -0.41167414 -0.60620266 -0.73617613 0.17081428 -0.35496828 0.682492
0.1347327 0.07465516 0.52686274 0.11617347 0.16032965 -0.10521608 0.9251287 0.8739077
-0.43355492 -0.8034449 -0.32310554 -0.7851559 0.28876972 -0.72133917 1.1340731 0.28301919
0.31577736 0.1070285 0.23205975 -0.60775983 0.6020151 0.1425583 0.021194404 -0.8587651
0.7516055 0.4955601 0.13928665 -0.055084143 -0.4735412 0.2899605 0.15545447 0.56770223
0.21335039 0.37506577 0.75149864 0.1367373 0.17215289 0.98939216 0.4691089 0.28499076
0.84032905 0.8421665 0.6771707 -0.2784573 -0.17123094 0.6099196 0.18568876 0.195049
-0.52011824 -0.8162769 -1.1315982 0.674046 -1.0807832 0.3570304 -0.00025905136 -0.5826572
0.51240164 -0.25221953 -0.2904728 -0.23077258 -0.07899768 0.12293133 -0.1625422 -0.39491573
0.3712647 -0.46294743 0.15445466 1.4887607 0.40674463 0.54233426 0.058622107 0.16437943
-0.40546173 0.43931368 1.4201705 -1.3954563 -0.6300357 1.5612361 0.17410634 0.21613915
1.4159151 1.3587592 -0.28437877 0.50642365 0.21613157 0.24338353 0.20475404 -0.023729332
1.6700073 0.34520337 0.21812508 0.14553991 0.6898277 0.3546489 0.6870182 1.2884456
-0.5150359 -2.779485 0.4473716 -0.4312886 -0.32957402 -0.48578128 -0.08185247 0.43736094
0.3580047 -0.022610325 0.23472135 0.18288739 0.15821177 0.17273524 0.3335876 0.057105247
0.085441224 0.35198885 0.4187968 0.3951847 0.3270685 0.63159275 1.3120129 0.9314914
-0.86602426 -0.25396046 -0.7219127 0.5977328 0.22016664 -1.6798394 0.13667719 0.5383907
0.8515484 1.0517814 1.0414906 -0.54125357 -0.06342529 -1.0489659 0.2543308 -0.18196115
0.033431005 1.2800606 -0.6666897 2.491418 -0.3557844 -1.5241776 0.44530523 0.049059406
-0.49963635 -0.12555744 0.14867048 0.7015325 0.49259454 0.646688 0.7766289 -0.11612656
0.054056514 -0.3931224 -0.9542583 -1.0756705 -0.53221184 -0.21635558 -0.7243395 -0.43985942
0.45789912 0.08633513 0.26395306 0.21379301 -0.9746218 0.11419744 0.36015034 0.74940705
-1.6448747 0.2340459 -0.25161788 0.42336905 -0.88259184 -0.8818565 -0.09862254 0.43092108
-0.05686149 1.1753124 0.34177342 -0.04274764 -0.647981 1.0287421 -1.3751575 -1.1602527
-0.86385006 -0.92603815 -0.92193335 -0.29092723 -0.056722384 -0.30764604 0.511473 0.9258822
-0.41698942 -0.37848574 -0.30486697 -0.3203074 -0.45939028 -0.07516907 -0.10154879 -0.03631985
0.38806802 -0.42243382 -0.3190114 0.3529393 -0.7213884 -0.15498449 -1.1540353 -0.70497155
-1.0913812 -0.15276295 -0.36310852 0.48343506 0.51111895 -0.6868334 -0.42190716 -0.24063581

l_lstm.weight_hh_l0 f4 [80, 20]
00000000: 8396 493f 98ff 813f 15b5 2e3f b1b0 053f
00000010: abe3 aabf f0bf f43f f5a2 f1be e48c fc3d
00000020: 83f2 263f 2a60 73bf 8b9e 023f 4e19 08bf
00000030: 90f0 0f3f 1e1f c8bf 409b 563f 9961 263e
00000040: 7bec 8fbd 19ed a2bd 0318 273f 5b74 223e
00000050: e2c2 693f 063d 893d a5ec f43e bc00 66bf
00000060: 042e 373e faed 88bf 985e 9d3e 6aa4 dd3e
00000070: 5bc2 6dbf 3e60 c8be 039b 5a3f e7cb 9a3f
00000080: df21 40bf 5a09 cabe af07 68be f763 6bbf
00000090: 5419 283f 760d 5f3f 7e63 8bbf 0cd6 94bd
000000a0: 6365 94bf 223d 1dc0 a8c3 80bf 5283 a3bf
000000b0: fcee 783f f982 f1be d292 a73d c363 fbbf
000000c0: a399 d5be c30c 9e3f 01b0 f9be dfca 5fbe
000000d0: bf5c e93f b5b6 34bd 810c 42bd dec3 1d3e
000000e0: 49e0 cb3f 5e4c 4cbf 6e31 01bf c02c 4c3f
000000f0: 657b c5be fb53 af3d 4dd8 103e 2c25 f53e
00000100: 601a 33bf 9f6c a3bc a09b 393e a3ee c23e
00000110: 5aae a63d c78f b4be 039e c0bc a400 ff3e
00000120: 4c37 c0be 5a0b b03d a294 34be 2daa 573f
00000130: e4e5 e73e 5c23 90be 3405 823f d70c 1dbe
00000140: b6a1 d43d eaac 4fc0 f7d5 8bc0 3316 203e
00000150: ad88 a2bd 39cb 5e3f 15f4 c23f f04d 27c0
00000160: db37 5e3f 4f09 f03f 9dce 013f c287 1ebf
00000170: 1ee6 573f d040 a93f 967c c83e 5984 173f
00000180: 5326 1fbd 6a6f f33f a3be 8fbf 5fcd 983e
00000190: 2bae ab3b d591 3140 5a59 0c40 303e 66bf
000001a0: 9959 5fbd 9aee 1ac0 e562 febf 143f 0040
000001b0: 0b99 05be 0604 7bbf 7432 f33e 84db 0d3d
000001c0: 4af7 a93e 8b62 f7bf d039 a9be ec13 9ebe
000001d0: 910d 0e3f 931b 8ebd 5e70 2840 03fe 19bf
000001e0: b499 153e 4a9b 1940 3195 0b40 196d 1bc0
000001f0: 915f 653f 9627 94bf 988f acbf 0172 be3f
00000200: e20f 01c0 f4fb 693f e13d fbbe 277a 53bf
00000210: caa5 1b3f 4db2 dfbf 9308 2e3f 6eb9 a2be
00000220: 8a41 87be 85b9 ad3f ac2d bb3f 51d6 863f
00000230: 6568 7abf dd65 d73e 92e4 893e 55fc 473c
00000240: 7349 17c0 1a75 24bf 4e4d 04bf bae4 0f3e
00000250: b21e 94be 24fd d7bc fb89 49bf 63a0 c83f
00000260: 37da ddbe 4f6a e23f fc9f 93be 266c 483f
00000270: cdc1 993f fc6b ffbf 8fd5 1cbe 79fc 07bf
00000280: 1d72 723e bde8 313f 4ee8 0a3f 3c97 8abf
00000290: fc0d 813e a39c 27bf 7816 02be 0466 b9bf
000002a0: 6904 213e b737 323f 3c20 963f 0fa1 803f
000002b0: 42f7 d03f 521a 90bf 40b7 53c0 7a58 023f
000002c0: c7cf d33f c2ca 473f 87f0 8abe c3c2 1cbf
000002d0: 06ca e9bf 247e f2be 999e bcbf 584b 0a3f
000002e0: 9c26 8ebf 6300 a83f d975 f0be c490 a3bf
000002f0: f444 b13e 72d7 37bc 4487 a0bf b148 99be
00000300: 4392 0540 0507 2640 3824 773e bf0e 2e3f
00000310: da15 9cbf 8826 283f a6f6 5c3f 922c 7d3d
00000320: 41a1 423e c8fa aabf f561 bbbe 0c3b cabf
00000330: b8d3 a23f ce23 b6bf 5542 7a3f e1f4 80bf
00000340: 4e9b 04c0 ca73 89bf 6f58 823f 6224 d4bf
00000350: 2a4d 123c 1bae 503f be6a 36bf aa8c a1be
00000360: 7170 10c0 f9cb d73d ff13 23bf 77b1 083f
00000370: 845b 18bf 5ef8 0740 1c67 463f 5fa6 a9bf
00000380: 90a3 28bf c6f6 d73e e829 a1be 424d 3640
00000390: 66d4 4fbe 0525 d63f bf87 21c0 112b 08bf
000003a0: 8506 b7bf 7a1b afbf d5cf 103f eae1 7c3e
000003b0: 6313 2f40 4bd6 2440 e4f4 f9be 8d41 c93f
000003c0: 62b9 90bf 859d 14be 8760 44bf f6c7 7fbf
000003d0: 5381 ab3e 53de 25bf 4ddf 52bf e0a2 c7bf
000003e0: 7eaf 203f 02be 9f3f 21cf 653e 3bba ba3f
000003f0: 7020 53bd dbeb 4e3f 3d32 17bf 40b1 2cbf
0.7874529 1.0156126 0.6824506 0.52222735 -1.3350729 1.9121075 -0.4719464 0.1233156
0.65213794 -0.9506861 0.5102317 -0.5316361 0.56226444 -1.5634496 0.8383064 0.16248168
-0.07027527 -0.07955379 0.65271014 0.15864699 0.9131299 0.067010924 0.47836795 -0.8984487
0.17888647 -1.0697625 0.30736232 0.432895 -0.9287469 -0.39135927 0.8539278 1.2093476
-0.75051683 -0.3946026 -0.22659181 -0.9194941 0.6566365 0.87129915 -1.0889738 -0.07267389
-1.1593441 -2.4568563 -1.005971 -1.2774451 0.9723966 -0.47170237 0.081823006 -1.963982
-0.41718778 1.2347645 -0.48767093 -0.21854733 1.8231429 -0.044119556 -0.047375206 0.15406749
1.5927821 -0.7980403 -0.5046605 0.79755783 -0.38570705 0.0856094 0.14145012 0.47879922
-0.6996212 -0.019949256 0.18125772 0.3807269 0.08138724 -0.35265943 -0.023512846 0.49805176
-0.37542188 0.08595915 -0.17634824 0.8424404 0.4529258 -0.28151977 1.0157838 -0.1533693
0.103824064 -3.2449288 -4.3698688 0.15633468 -0.07936225 0.87028843 1.5230738 -2.614132
0.8680398 1.8752841 0.5070589 -0.619259 0.84335506 1.3222904 0.39157552 0.5918632
-0.03885491 1.9018376 -1.1230053 0.29844186 0.0052392683 2.774526 2.1929536 -0.8993864
-0.054528806 -2.420813 -1.987393 2.00385 -0.13046663 -0.98053014 0.4749943 0.034633175
0.3319648 -1.9326948 -0.3305192 -0.30874574 0.5548945 -0.06938853 2.6318583 -0.60153216
0.14609414 2.400103 2.180981 -2.4285338 0.8959895 -1.1574581 -1.3481321 1.4878541
-2.0165944 0.91400075 -0.49070647 -0.82608265 0.6079985 -1.7476288 0.67981833 -0.31782097
-0.2641719 1.3572241 1.4623313 1.0534154 -0.97815543 0.42069903 0.26932198 0.012206157
-2.363858 -0.6424118 -0.5168046 0.14052096 -0.2892967 -0.026365824 -0.78726166 1.5673946
-0.43330547 1.7688693 -0.28832996 0.7829002 1.2012268 -1.9954829 -0.15315841 -0.5311962
0.23676343 0.69495755 0.5426072 -1.0827403 0.25205982 -0.65473384 -0.12703884 -1.4484258
0.15724339 0.69616264 1.1728587 1.0049151 1.6325457 -1.1258032 -3.3080597 0.50916255
1.6547784 0.7804376 -0.27136633 -0.6123468 -1.8264778 -0.47361863 -1.47359 0.54021215
-1.1105533 1.3125118 -0.4696491 -1.2778554 0.3462292 -0.0112208 -1.254128 -0.29938272
2.087052 2.5941784 0.2413491 0.6799125 -1.2194169 0.65683794 0.86313856 0.061810084
0.19006826 -1.3357782 -0.36598173 -1.579927 1.2720861 -1.4229677 0.97757465 -1.0074731
-2.071979 -1.0738461 1.0183238 -1.6573603 0.00892953 0.81515664 -0.71256626 -0.3155263
-2.2568629 0.105369516 -0.63702387 0.5339579 -0.5951464 2.1245341 0.7750108 -1.3253897
-0.65874577 0.4218046 -0.31477284 2.8484654 -0.20295867 1.6730047 -2.5239103 -0.53190714
-1.4298865 -1.368026 0.56567127 0.24695554 2.7355583 2.5755794 -0.4881965 1.572313
-1.1306574 -0.14513214 -0.7670979 -0.9991449 0.33497104 -0.64792365 -0.8237198 -1.559658
0.6276778 1.2479861 0.22442295 1.4588083 -0.051544607 0.80828637 -0.5906103 -0.6745796

l_lstm.bias_ih_l0 f4 [80]
00000000: ff13 f2bf 2ad0 a340 41a3 133f 9273 bd3f
00000010: ffaf f03f 7405 64c0 d303 f53e 3edb bf3f
00000020: 9d69 f83e b390 463f d877 10b9 325d f93f
00000030: e8a8 ba3f df84 833f c24d fb3f f3c3 64be
00000040: 5570 9a3f 1a95 b03f f3b7 423f 8258 71bf
00000050: e2a0 023e d704 20c0 cd31 06bf 967c 0b3f
00000060: 8cf6 26bf f38b 0f3f 0f32 073f 6af2 b1bf
00000070: 62df 50bf 564a 21bf 9cd1 d0bd 5bec 42be
00000080: 991e c2be a1b4 8abd 7761 5fbf e7cc be3e
00000090: e3b5 c2bc d6fd 523f b973 c1bf fc8f a43d
000000a0: f996 293d 72de 883f cd29 613f aac2 b4bf
000000b0: 19f4 52be a13f 05be b0d5 a93f 2386 663f
000000c0: d6dd b1bf 47bb 8dbe b65d 8ebf b859 11bf
000000d0: 69f2 aabf 9c86 96bf e6fa 983f 4b02 37be
000000e0: 1499 d63f ed2f 06bf 93f4 2cc0 9c61 c8bd
000000f0: 9126 7abf 96ee 70be 5205 883e 6999 71c0
00000100: 9a3c d7be 7393 9cc0 75a7 d33f d230 a33f
00000110: f7c2 833f 8056 0b3e b9ec 423f e799 2340
00000120: 82a0 543f 5762 4c3f ee46 ba3f fd3f 0cc0
00000130: d358 0bbe bcec 153f b0a0 353f 77b8 14bf
-1.8912352 5.1191607 0.5767098 1.4800894 1.880371 -3.5628328 0.4785448 1.4988782
0.48518077 0.77564543 -0.00013777555 1.9481566 1.4582796 1.0274924 1.9633105 -0.22340374
1.2065531 1.3795502 0.76061934 -0.9427568 0.12756684 -2.5002954 -0.5241974 0.5448698
-0.6521995 0.5607292 0.5281076 -1.3902104 -0.81590855 -0.6300405 -0.1019623 -0.19035475
-0.3791397 -0.067727335 -0.87258095 0.37265703 -0.023768371 0.8241857 -1.5113441 0.08035275
0.041403744 1.0692885 0.8795441 -1.4121907 -0.20600928 -0.13012554 1.3268337 0.90048426
-1.3895824 -0.27681944 -1.1122348 -0.56777525 -1.3355228 -1.175983 1.1951568 -0.17871968
1.6765466 -0.5241688 -2.7024276 -0.097842425 -0.977151 -0.23528513 0.2656656 -3.7749884
-0.42038423 -4.892999 1.6535479 1.2749274 1.0293874 0.13607216 0.7614246 2.5562685
0.83057415 0.79837555 1.4552896 -2.1914055 -0.13608103 0.58564353 0.70948315 -0.5809397

l_lstm.bias_hh_l0 f4 [80]
00000000: 9091 d1bf 85c9 a440 0f7a 663e e88a c13f
00000010: 76ed d83f 8aee 5fc0 33d1 333f 0ec4 d93f
00000020: b94d 333f 274c 4d3f 250e a83e 8092 c63f
00000030: beff 8b3f f155 3f3f 0fe3 1440 49aa 60be
00000040: 58c3 a63f 70dc 813f 976c 8a3f ba66 54bf
00000050: 3347 713e 0751 1fc0 da7e 92be ab03 f73e
00000060: 1d06 d5be a7bb 303f 60d5 f13e 527a 99bf
00000070: f1d8 3abf 3443 14bf 5bf4 0c3d 5f10 adbe
00000080: b42d 9dbe c7e7 843d 21d6 6ebf 7c21 0ebd
00000090: 572f 4a3e 97aa 673f db1b dabf 8e58 513e
000000a0: 044c 8cbe ee51 943f 4cf5 413f 666c b1bf
000000b0: 7129 d4be 88ad c8bd becd b33f ee1b 453f
000000c0: a2a5 d3bf 464e 8cbe 0051 92bf 42e5 1dbf
000000d0: 3b84 a2bf 11b1 99bf fda0 833f 6e18 4b3a
000000e0: 2db4 cf3f b531 23bf e2e5 34c0 e1e2 fdbd
000000f0: 42eb 7cbf 80eb e9be a3ef 8c3e 25c0 84c0
00000100: 7b2e bfbe 63ef 97c0 2f23 a33f 8a58 b33f
00000110: 5856 8c3f f844 fe3d 4a0a 2c3f 6faa 2540
00000120: 4915 4d3f 9b54 453f f288 d73f 4dac 1fc0
00000130: d607 37be b479 4a3f dd25 6c3f 32c9 ccbe
-1.6372547 5.1495996 0.22507499 1.5120516 1.6947467 -3.4989343 0.7024109 1.7012956
0.7004047 0.80194324 0.3282329 1.5513458 1.0937421 0.7474051 2.3263586 -0.21939959
1.3028364 1.0145397 1.0814389 -0.8296925 0.23562317 -2.4893205 -0.28612405 0.48244986
-0.41606227 0.69036335 0.47233105 -1.1990454 -0.72987276 -0.57915044 0.034412723 -0.33801553
-0.3069893 0.064895205 -0.93295485 -0.034699902 0.19744621 0.90494674 -1.7039751 0.20443937
-0.27401745 1.1587503 0.7576492 -1.3861206 -0.41437867 -0.097987235 1.4047163 0.7699574
-1.6534922 -0.27403468 -1.1430969 -0.61677945 -1.2696604 -1.2007161 1.0283505 0.0007747476
1.622686 -0.6374772 -2.826531 -0.12396789 -0.98796475 -0.45687485 0.27526578 -4.148455
-0.3734015 -4.747972 1.2745112 1.4011395 1.096385 0.124154985 0.672032 2.5885274
0.80110604 0.7708222 1.6838667 -2.4948914 -0.17874083 0.79091954 0.92245275 -0.3999725

hidden1label.0.weight f4 [100, 100]
00000000: 5a87 0940 851c cfbf cba2 6b3f 01ba b4bf
00000010: 6721 a5be 6572 c2bf b8e5 a93f 1904 933e
00000020: 008c 48bf be80 d7be 58af 81bf e8d1 63bf
00000030: 888e 1cc0 f52c 5fbf 5a04 353f 3615 7ebe
00000040: f993 ec3f c417 ebbe 06b6 dabe 2dbf a1bf
00000050: ef15 31bd 6ec4 e3be 979c 0b40 8a09 2fbf
00000060: ed7c 2dbf 9b65 babc 402f 1cbe 117a 9a3e
00000070: 223a 64bf 8e5e 693e 8440 38bf 9f35 5bbf
00000080: 6f64 e73e 69b1 55bf 886d d23d 4ddd 07bf
00000090: 56e5 0f40 a526 153e c265 75be 03c4 e63e
000000a0: b1e1 eb3e b704 9fbe 2ebd ed3e 56b0 d1be
000000b0: 75fd 8e3e ce0b 21be 748d 0b3e 664e 2c3f
000000c0: b003 813e 45b0 ec3d c18e b3be 0030 db3e
000000d0: e668 8d3e cc82 d1bd 8c2f 16be 1f2f f6bc
000000e0: d050 7bbe 71cd 483e f21e a9be 7e8d e43e
000000f0: 2990 f13e 2848 97be 7a7f a63d d856 1e3f
00000100: f580 9fbd 9f5e 723f d9a6 733d 5b52 2e3e
00000110: 3d52 cd3e 2a60 2cbd 368a 173f 5d3a 193e
00000120: fd97 2f3f 44f6 c73e 1050 1bbf b26e 0a3f
00000130: 82bd 833e 1113 bc3d 4c48 46bd 3c2a d6be
00000140: b14a e13e 9ab8 b93d 37a0 993f 61f2 11be
00000150: 3d16 19be e214 f03e e848 b3be b5e0 d93e
00000160: bde5 073e 5916 d6be 9e67 5e3f 0ebf 703f
00000170: 0045 cc3e 4f00 21bd 69a4 f43e 11a6 483e
00000180: b167 21bd 32de 3fbe 6603 04bd 7905 cd3e
00000190: 7def 023d 3bba 933e 8ce5 bf3e f8db 26be
000001a0: b86a ca3d f89e c63d 5e2d 54be 0111 e83e
000001b0: cad1 24bd 7f46 6dbe a0c6 aa3e bd3d 183e
000001c0: 6d56 103e 74b8 723d 6e77 02be 2f91 e6bd
000001d0: 2e22 583d 1989 9a3e 5d3b 783e 08c8 c5bd
000001e0: 319c 0e3e 6609 3a3e 9f69 dd3e 0aca 8cbe
000001f0: 4688 a13e 883b 29bd 1127 093e 2921 d23e
00000200: 5622 173e a23b b43c bae0 413e 08b4 7a3e
00000210: 658b e03e 53f6 cdbd 066d 00be 8430 b23d
00000220: 5168 0e3d 999b 6c3e 23da 453e 2e36 04be
00000230: d595 ae3d 4b2c 833e 6e34 0abb 426c f4be
00000240: d0a8 8c3e 0a08 47be 333c 433d 9575 243d
00000250: 2a6a 6d3d 65a0 ff3b 6aa4 a73d b711 2cbe
00000260: 0f39 463e 1b41 7abe 44ee 9cbe 5db3 adbd
00000270: 893e 563e 34c5 4f3e 39de 6e3e c9a4 3b3e
00000280: eda1 283e 3322 903e b83c 803d c423 a1be
00000290: 6409 a43d a2bb 4dbe 9567 82be 4634 f7ba
000002a0: 2a68 58be e6f8 47bd b74c 553d dea2 06bd
000002b0: e9e1 c13d 8543 84be 17e6 b1be 46d7 c6bc
000002c0: e244 073e 2e9f ca3e 0343 6e3e f65b 653d
000002d0: 8b4e 213e 1fb2 cf3e 2d10 a2bd 0f9c 85be
000002e0: b662 793e 5503 1cbd b134 ac3d 452d dbbd
000002f0: f941 873e 3685 cebd 1d4d 413d b4d2 103e
00000300: e5ee 843e 8d69 f0bd f1ea a1be 52c2 a6bd
00000310: 8723 503e 22cf cc3e eae0 8d3e 03cf 603c
00000320: 49e9 9bbf b019 f43f 490f c13e e45d a93f
00000330: d37e 90bf aac5 763f ef41 41bf 5819 be3f
00000340: 62c0 313f 5a9a 00bf 5371 43bf 97de c53f
00000350: a98b f03e 0a27 ef3e f6d9 043f 6143 a53f
00000360: 0400 1cbf 8072 eb3f 6fc5 9c3f 26c2 d43f
00000370: 4e3e 693e 3e69 e63e a222 c1bb dcf2 85bd
00000380: 775f d13e 0b72 61be 9908 f3be 7214 68bc
00000390: 05f0 c53e 4d7f 853c a9d3 0b3c a83a b4be
000003a0: 368e 05be f9de a7bd 7816 ae3d c9d8 333f
000003b0: 213b 28bf d07d 953e ab0a a0bd 01ba 0bbe
000003c0: ffde 1c3d b6ea b83e f146 cfbe 428c 98be
000003d0: b068 7c3f 11e2 cbbc 6d3c f7be 4500 58be
000003e0: 21a7 863c 918d 84be 07a1 b23e 44ca f6be
000003f0: d9b5 723e 6690 c6be d3b5 83be 3a3a f53e
2.1488862 -1.6180578 0.9204528 -1.4119264 -0.32252046 -1.519116 1.327323 0.28714064
-0.78338623 -0.4209041 -1.0131636 -0.88992167 -2.4461994 -0.87177974 0.70709765 -0.24812779
1.8482658 -0.4591657 -0.42716998 -1.2636467 -0.043233808 -0.444858 2.1814325 -0.6837393
-0.67768747 -0.022753527 -0.152524 0.30171254 -0.89151204 0.22789976 -0.71973443 -0.85628694
0.45193812 -0.8347383 0.10274798 -0.53072053 2.2483726 0.14565523 -0.23964599 0.4507142
0.46070626 -0.31058285 0.46433395 -0.40954846 0.27927747 -0.1572716 0.13628179 0.67307127
0.25198126 0.11557058 -0.3506985 0.4281006 0.27619094 -0.10230026 -0.14666575 -0.030051766
-0.24542546 0.1960962 -0.33031422 0.446392 0.47180298 -0.29547238 0.08129783 0.61851263
-0.077882685 0.9467563 0.05948529 0.17023604 0.40101805 -0.042083897 0.5919527 0.1496367
0.6859129 0.39055073 -0.6066904 0.5407516 0.2573052 0.09183324 -0.04840879 -0.41829097
0.44002298 0.09068413 1.2002019 -0.14252616 -0.1494989 0.46890932 -0.3501656 0.4255425
0.13271232 -0.41813925 0.8687686 0.94041526 0.39896393 -0.039306935 0.47781685 0.195946
-0.03940553 -0.18737105 -0.032229804 0.40043238 0.031966675 0.2885302 0.37479818 -0.16294849
0.09883636 0.0969829 -0.20720431 0.45325473 -0.040239133 -0.23171423 0.33354664 0.14867301
0.14095469 0.05925794 -0.12740871 -0.1125816 0.05276697 0.30182722 0.24241395 -0.096572936
0.1392677 0.18167648 0.43244645 -0.27497894 0.3154928 -0.04131654 0.13393809 0.41040924
0.14759192 0.022001091 0.18933383 0.24482739 0.4385635 -0.10056748 -0.12541589 0.0870066
0.034767453 0.23106231 0.19321494 -0.12911293 0.08524672 0.2561973 -0.002108838 -0.47738844
0.27472544 -0.1943666 0.047664832 0.040151197 0.057962574 0.007801103 0.08185656 -0.16803633
0.19357704 -0.24438898 -0.30650532 -0.084814765 0.20922293 0.20290071 0.23326959 0.1832458
0.1646802 0.28151092 0.06261581 -0.314726 0.080096036 -0.20091107 -0.25469652 -0.0018860183
-0.21133485 -0.048821352 0.052075114 -0.032870166 0.09466917 -0.25832763 -0.34745857 -0.024272572
0.1320987 0.3957457 0.2326775 0.055995904 0.15752618 0.40565583 -0.079132415 -0.26095626
0.24354061 -0.038089115 0.084084876 -0.10701994 0.2641752 -0.10084002 0.04719268 0.14142877
0.25963512 -0.11738882 -0.3162456 -0.081425324 0.20326053 0.4000178 0.27710658 0.01372123
-1.2180568 1.9070339 0.37706974 1.3231778 -1.1288704 0.9639536 -0.7549123 1.4851484
0.6943418 -0.5023552 -0.76344794 1.5458554 0.46981552 0.46709472 0.5189508 1.2911187
-0.60937524 1.8394318 1.2247752 1.6621749 0.22777674 0.45002168 -0.005894021 -0.065404624
0.40893146 -0.2201616 -0.47467497 -0.014165031 0.38659683 0.016296053 0.00853435 -0.35201
-0.1304253 -0.081968255 0.08500379 0.7025266 -0.65715224 0.2919755 -0.07814535 -0.13645174
0.038298603 0.3611657 -0.40483811 -0.29794508 0.9859724 -0.02488807 -0.4828829 -0.21093853
0.016437115 -0.25889257 0.3488848 -0.4820119 0.23702182 -0.38782042 -0.25724658 0.47895986

hidden1label.0.bias f4 [100]
00000000: 19fd 8cbf 292d 18bf 7398 71be fc65 52bf
00000010: ee53 6dbf f7ab fbbe f1d3 85be 5f81 8ebf
00000020: 7300 82bf 9e4d 47bf 63c4 4abf 5700 73bf
00000030: e24a 85bf 3498 28bf bffc 5cbf c3c4 5dbf
00000040: 663b 85bf 46e8 16bf bc5c 3fbf 0699 8cbf
00000050: 53f3 72bf 58c2 78bf a76c 15bf d074 26bf
00000060: 0349 92bf 4ed1 a4be af8f 0bbf 4ce7 15bf
00000070: 490d 3e3e 863c 89bf 2c25 18bf 4aaa 30be
00000080: 8886 6fbf 907d b8bf 60ee e2be 83ce 49bf
00000090: 65f6 c7bf 3aa3 05bf d3df efbe 67e0 70be
000000a0: 8ab7 b1bf 1b4e 9cbf fcbe 25bc e2d0 c1be
000000b0: 7fa1 60bf b81b 12bf 20a8 66bf 591d 7cbf
000000c0: 1b73 5dbf eb33 3cbf 8e74 febe 9caa 8ebf
000000d0: bdb2 a3bf 6273 c4be 12f5 8dbe 237a 6fbf
000000e0: d190 99bf 45ad 71bf ceba 9bbf f268 13bf
000000f0: 5a4e 34bf 2cc6 5fbf f6c4 12bf f881 69bf
00000100: 4ddb 36bf 8822 88bf 462d a2bf 8881 35bf
00000110: 5950 1bbe 5d67 07bf 4976 0cbf 0c8d 63bf
00000120: 4b80 e0be 7e3d 31bf 4753 6abf 4254 5ebf
00000130: e6fe 93bf 215c 1abf 9fd2 b5bf 095e 96bf
00000140: af52 b5bf e767 fdbe fb73 15bf f36a 88bf
00000150: f010 96bf 13d2 f5be 9433 f5be d265 d8be
00000160: f3a2 2dbf 81ab 7ebf a99b 8bbf 2c18 80bf
00000170: 43de 75bf cf34 53bf 8f3b dbbe f6cd 04bf
00000180: 7219 b2be 87f6 e3bf 4a32 80bf 6938 3bbf
-1.1014739 -0.5944391 -0.23593311 -0.82186866 -0.9270619 -0.49154636 -0.2613826 -1.1133231
-1.0156387 -0.7785281 -0.7920591 -0.94922394 -1.0413477 -0.65857244 -0.8632316 -0.8662836
-1.0408752 -0.5894817 -0.74750876 -1.0984199 -0.94902533 -0.97171545 -0.58368915 -0.6502199
-1.1428531 -0.32190937 -0.5451612 -0.58556056 0.18559755 -1.0721595 -0.5943172 -0.1725246
-0.93564653 -1.4413319 -0.4432249 -0.78830737 -1.5622069 -0.5220219 -0.46850452 -0.23523103
-1.3884137 -1.2211336 -0.010116335 -0.37854677 -0.87746423 -0.57073545 -0.9010029 -0.9848228
-0.8650376 -0.7351672 -0.496983 -1.1145816 -1.2788922 -0.3836928 -0.27726036 -0.9354574
-1.199732 -0.94405013 -1.2166383 -0.5758201 -0.70432055 -0.8741176 -0.5733179 -0.9121394
-0.71428376 -1.0635538 -1.2670066 -0.70900774 -0.15167369 -0.52892095 -0.5486799 -0.88887095
-0.4384788 -0.69234455 -0.9153332 -0.8684732 -1.1562164 -0.6029683 -1.4204901 -1.1747447
-1.4165858 -0.49493334 -0.583801 -1.0657638 -1.1723919 -0.48011836 -0.47890913 -0.42265183
-0.67826766 -0.99480444 -1.0906879 -1.0007377 -0.9604227 -0.82502455 -0.42818877 -0.5187677
-0.34785038 -1.7809609 -1.0015347 -0.7313295

hidden1label.3.weight f4 [1, 100]
00000000: 61d4 49be 1edc 7f3d f74e c33d dbcb 03be
00000010: 9600 26bd fcec 87be 1941 803d 766a 8d3d
00000020: a432 43be 4417 42bd cb01 37bc dc7c 933d
00000030: 3dc3 693d 94d5 013d b3c2 7f3d 10c8 9dbe
00000040: 3eb6 23be 8ba6 b53d f546 fb3d faf6 fd3d
00000050: dccb a93d 6a5b 3dbd 8945 703d c87b 45be
00000060: 95ae 523c a9c0 a8bd 3914 13bd fd2b 883d
00000070: 24c3 34be c212 983c 9acb a83d f20b 2ebe
00000080: 5466 9e3d 2b6f 173d 6bef 80be 3124 b0bd
00000090: 6240 ce3d 09fa 1fbe 37a0 033d b5f1 ee3d
000000a0: 82f6 153d 1b82 2d3d c1c4 9a3d 4c35 93be
000000b0: 18d1 9dbd 8db1 44be ea38 08bd 3331 c73b
000000c0: eab4 af3d 3b66 dc3d 4061 73bd 2e38 003d
000000d0: 9079 243d a5ab 4cbe afb1 07be 7a99 e23d
000000e0: 40f5 d6bd 5860 383e 01b0 bbbd 7258 833d
000000f0: a2f5 513d db7e 62be 8f81 833d d4ab d3bd
00000100: 34a4 503b 8572 d93b 5c2b e7bd f57f 46be
00000110: 40e1 15be 9753 763d 02a8 dfbd aeae a03d
00000120: 382d d1bd fdfd d7bd f3c1 52bb dcf2 12bd
00000130: 484e b83c 6c81 7abe 43b3 e13d 7e3c d63d
00000140: cb1f 10be e941 8a3d f12b 113c ec29 f73d
00000150: a4c3 653c c66e 64bd dca6 9c3d 114c 4cbd
00000160: 069a d53d 0d9a 173d 41f2 943c 4a1b 393d
00000170: 328b 313e 18ed cf3d 51a3 df3c 36fd 9dbd
00000180: 8cfc 29be 1831 babe ad06 5cbe c708 f8bd
-0.19709922 0.06246578 0.09536546 -0.12870733 -0.040527903 -0.26547992 0.062624164 0.069050714
-0.19062287 -0.04738547 -0.011169861 0.072015494 0.05707096 0.031697825 0.06244154 -0.30816698
-0.15987489 0.08869656 0.12269393 0.12400623 0.08290836 -0.046229757 0.058660064 -0.192855
0.012859006 -0.08239872 -0.035907958 0.06649015 -0.17652565 0.018563632 0.08241959 -0.16996744
0.07734361 0.036971252 -0.2518266 -0.08600653 0.10070874 -0.15622725 0.032135215 0.11667196
0.03661204 0.042360406 0.07557059 -0.287516 -0.07705897 -0.19208355 -0.033257402 0.006078863
0.085794285 0.107616864 -0.059418917 0.031303577 0.040154994 -0.19987352 -0.13251375 0.110644296
-0.104959965 0.18005502 -0.091644295 0.06413354 0.051259644 -0.22118704 0.06421196 -0.10335508
0.0031836154 0.0066359662 -0.11287567 -0.19384749 -0.14636707 0.06013831 -0.10920717 0.078458175
-0.10213703 -0.10546491 -0.003215906 -0.03587614 0.022498265 -0.24463433 0.110205196 0.10460757
-0.14074628 0.067508526 0.008860574 0.12068543 0.014023695 -0.055769704 0.076490134 -0.04987723
0.10429768 0.03701215 0.018181922 0.04519204 0.17338255 0.10152644 0.027299555 -0.07714312
-0.16600245 -0.3636558 -0.21486922 -0.12111049
